Models/controller/lstm_model.pth (torch, 572018 bytes, 9 tensors)

lstm.weight_ih_l0 f4 [400, 52]
000000 cb c4 24 3e e9 0e 4c 3e 47 c4 fe bc f8 54 f8 3d
       0.16090696 0.19927563 -0.031099452 0.121255815
000010 73 ce c4 3d 9a 4c ae 3a f8 b5 08 3e 57 db ca 3d
       0.096096896 0.0013297976 0.13350666 0.09905117
000020 33 6a cd 3e 40 c3 40 3e 44 a7 40 3d c3 51 3a 3e
       0.40120086 0.18824482 0.047034517 0.18195252
000030 a3 4d 1c 3c ea 08 89 3a fd e5 a3 bd d9 3a 50 3d
       0.009539994 0.0010454927 -0.08002851 0.05083737
000040 03 0b 68 3d 67 96 b5 3c 78 f1 a2 3d bd 82 43 bd
       0.056651127 0.022166444 0.07956213 -0.047732104
000050 ed 06 ab bd 58 05 a3 bd 13 65 39 bd a8 c3 80 bd
       -0.0835093 -0.079600036 -0.045262408 -0.062873185
000060 e0 a5 80 3d 5d ba 6f bd e0 f7 86 bc 8a 12 a6 3d
       0.06281638 -0.05852734 -0.016475618 0.08109005
000070 6a bd 8b 3d 43 f6 6f bd 4a c9 94 3d 8f 45 94 3d
       0.06823237 -0.058584463 0.07264955 0.0723983
000080 ae f3 0f 3e 18 9c 38 bc 0d d5 ae 3d 41 a5 14 be
       0.140578 -0.011267684 0.0853673 -0.14516164
000090 07 73 43 3c 6a 70 8a 3d 53 e5 bd 3d d4 c9 9d 3e
       0.01192928 0.067597225 0.09272256 0.30818045
0000a0 fe bf f8 3d 15 72 7b bd 51 b8 b5 bd 21 7a 8b be
       0.121459946 -0.061388094 -0.08873046 -0.27241614
0000b0 62 f4 95 bd 59 4c d7 bc 81 53 26 be 05 60 41 3e
       -0.07322003 -0.026281523 -0.16242792 0.18884285
0000c0 7a 3f ca 3d 49 7e 28 3c 04 e1 de 3d 0c c9 fa bc
       0.098753884 0.010284015 0.10882762 -0.030613445
0000d0 91 ef b2 bd ca 0b 99 bd 98 0c cb 3d b5 d0 02 bd
       -0.087371 -0.07472952 0.099145114 -0.03193732
0000e0 63 44 34 3e 47 ba 92 bc 5b 87 04 3e 41 bc 11 3e
       0.17604212 -0.01791109 0.12942259 0.1423197
0000f0 74 39 1d 3e 52 a7 88 3e 89 a4 9a 3d 4b e2 ae 3d
       0.15353948 0.26690155 0.07550914 0.08539256
000100 7d 4e 82 3d 9f 2d cd bd a2 31 c7 bd f1 cc bc 3d
       0.06362627 -0.10018467 -0.097262636 0.09218777
000110 f3 3e a4 bd c0 1b 7b 3c 67 71 20 bb 1a 6c 0e 3c
       -0.08019819 0.01532644 -0.0024481656 0.008692766
000120 f0 42 21 3d 9a 21 87 bd c7 49 a5 3d 67 a1 48 bc
       0.039370477 -0.06598206 0.080707125 -0.012245513
000130 b7 fb 6b bd 1d 58 2d 3d 27 10 52 3d 00 e3 ae bd
       -0.0576131 0.04232036 0.051284935 -0.085393906
000140 6f e6 02 bd 33 3d c7 ba 65 ec a3 3d 6d 33 6e bd
       -0.03195804 -0.0015200734 0.08004073 -0.058154512
000150 2d f6 7e be 61 4f 0d bb f0 f8 10 bd ab cb 80 bd
       -0.24898596 -0.0021562206 -0.035393655 -0.062888466
000160 fd 56 9b be c6 e1 5e be 53 98 ae bd e4 7e 20 3c
       -0.30339804 -0.21765813 -0.08525147 0.009795878
000170 fd 2b 16 be 88 d8 67 3d b1 14 01 3e 70 35 cc be
       -0.14665218 0.056602985 0.1260555 -0.3988452
000180 c2 5d a6 3d 26 6e ec 3d b4 47 89 3d 37 fd 4e 3e
       0.08123352 0.11544447 0.067031294 0.20213781
000190 21 4d 28 bd fc c7 c1 3c 03 b5 04 3e 7f 3a db 3c
       -0.04108918 0.02365493 0.12959675 0.026761292
0001a0 da 93 3f 3e 65 3b 77 bd 88 77 bf 3d 94 37 5c 3c
       0.18708745 -0.060359377 0.09348971 0.013440985
0001b0 9f 1d 95 3e e4 2e 80 3e dc de 36 be 3d 56 18 3e
       0.29124162 0.25035775 -0.17858452 0.14876647
0001c0 b3 c1 2c 3e df 33 24 3e 4b b9 7d 3e f1 6e fc 3d
       0.16870765 0.16035412 0.24777715 0.12325848
0001d0 8d be 1f 3c 72 ec cc bd d3 54 9d 3c b5 bd 0f bc
       0.009750021 -0.10006036 0.019205486 -0.008773257
0001e0 4f b8 ae 3d b3 2b 2a 3d 42 c0 b4 3d 27 fb 88 bd
       0.08531248 0.04154558 0.08825733 -0.066885285
0001f0 8a c6 8f bd d7 61 4c bd 53 01 d0 bc f3 a5 19 bd
       -0.0702029 -0.049897995 -0.025391256 -0.037511777
000200 0d a4 dc bc 9a 6a 4d bd 80 d1 30 bd ea 2c 56 3d
       -0.026933694 -0.05015049 -0.043168545 0.052288927
000210 1b ae b7 3d 10 fe 0c bd 43 74 9c bd 13 a0 bd 3d
       0.08968755 -0.03442198 -0.07639363 0.09259047
000220 e5 1c 16 be 7b a6 89 bd bf 2b 83 3d 15 e8 93 3e
       -0.1465946 -0.06721207 0.06404828 0.28888002
000230 29 89 55 3e 96 9b 67 3e b7 a5 4b bd fb ad 42 3e
       0.20853104 0.22617945 -0.049718585 0.19011681
000240 a5 72 8a bc 73 8c d9 bd 27 d6 50 3e 5f 38 60 3e
       -0.01690037 -0.10622492 0.20394193 0.21896504
000250 23 ef 68 3e 0e 89 a8 3c 88 f3 a8 bd f4 be 8a 3c
       0.22747473 0.020573165 -0.08249575 0.016936757
000260 f0 e2 b6 bd 37 68 75 bd 0d 08 a0 3c 8a e6 2a be
       -0.08930004 -0.05991384 0.019535089 -0.16689506
000270 dd e3 3d 3e 75 c5 36 3d ed 6e 02 bd 2d f3 bc 3d
       0.18543954 0.044621903 -0.03184407 0.092260696
000280 41 c2 14 3e c2 a6 d9 3d 8d 59 da b9 a7 94 a2 3d
       0.14527227 0.1062751 -0.0004164692 0.079385094
000290 bc f3 78 3c 68 0d 28 3e 3d e3 d8 3d 57 c1 7b 3e
       0.01519483 0.16411364 0.10590217 0.24585472
0002a0 e2 de e5 3d 75 34 d2 bd 43 3f 9c 3d 14 b2 df bc
       0.11224152 -0.10263912 0.07629254 -0.027306594
0002b0 47 c9 c8 bd 07 2e d3 bc 73 18 2e 3c c3 d6 28 bd
       -0.098040156 -0.025778783 0.010625946 -0.041220438
0002c0 8d 32 4a bc 9a 57 69 3c cd 9c 40 3a da a8 8b 3c
       -0.012341154 0.014242077 0.0007347584 0.017048288
0002d0 00 48 7f ba 87 4b ae 3d b3 5a 6d bc b7 cb 39 3d
       -0.0009738207 0.085104994 -0.014486956 0.045360293
0002e0 ea 0c 60 bd 60 44 ea bc 68 91 ab 3d da 40 07 bc
       -0.054699816 -0.028597057 0.083773434 -0.008255208
0002f0 55 f6 4e 3e 0a 22 ec bc 67 13 21 3b ab 10 94 3d
       0.20211156 -0.028824825 0.0024578215 0.07229742
000300 ba 40 e6 3c 24 45 f1 bc a7 bb f0 3c ec 4f 1a 3d
       0.028107036 -0.029451914 0.029386355 0.037673876
000310 79 66 de 3d c6 6d 7b bd 4a 18 d6 3d ba f3 c3 bc
       0.10859389 -0.061383985 0.104538515 -0.023919929
000320 29 cc e7 3c 99 b8 b7 3d 8d 99 5f 3d fa d7 aa 3d
       0.028295593 0.08970756 0.054589797 0.083419755
000330 d5 00 fe 3d 3e 1f dd 3b 90 d4 b3 3d 33 10 10 bc
       0.124025024 0.006748109 0.087807775 -0.008792925
000340 54 4c 6b bd da ce bc 3b 0a 1f 28 3d a9 8f ad bd
       -0.05744584 0.0057619633 0.041045226 -0.084746666
000350 f7 ae 2f 3e 3e 50 32 3d 83 77 e8 3d fa b2 28 3e
       0.17156588 0.043533556 0.1135092 0.16474524
000360 6a c9 20 3e 41 7c eb bc 8e 2f 5e 3e 76 d8 6a 3d
       0.15701833 -0.028745772 0.21697828 0.05733534
000370 f0 78 aa 3d f3 fd 33 3d 0a 18 c2 3d dc 1c a6 bd
       0.08323848 0.043943357 0.09477241 -0.08110973
000380 13 f5 3e bd 2a d1 ad 3d 73 62 6e bd b8 9b 96 3d
       -0.04662044 0.084871605 -0.058199357 0.0735392
000390 70 48 17 bd a3 fb 01 bd 40 e3 dc bc b3 54 26 3c
       -0.036934316 -0.03173412 -0.02696383 0.01015203
0003a0 2b 33 88 3d 40 d2 eb bc df 77 a0 3d 63 26 07 3d
       0.066503845 -0.028786778 0.078353636 0.032995593
0003b0 7e ad c3 3d 9a 91 38 bb 47 31 7f bd d7 43 61 bd
       0.095545754 -0.0028162957 -0.062302854 -0.054996338
0003c0 b3 4b ac 3c a3 24 03 be 4b 97 a2 3d b3 e9 6f 3d
       0.02103219 -0.12806945 0.07939013 0.058572482
0003d0 d5 bf 94 3c 6d 9a 9e 3d e7 2d d2 3b 78 15 98 3d
       0.018157879 0.07744298 0.0064141634 0.0742597
0003e0 de 00 8a 3e 9d 49 c0 bc 8e d4 b0 3c b6 d8 0f 3e
       0.26953787 -0.023472602 0.021585729 0.14047512
0003f0 6e 16 46 bc e7 52 de bd 38 d9 0e 3c d6 1e 90 3d
       -0.012090309 -0.10855656 0.008718781 0.070371315

lstm.weight_hh_l0 f4 [400, 100]
000000 ef da 93 3e a0 20 60 3e ae bd 0b bf 85 34 6c bd
       0.2887797 0.21887445 -0.54586303 -0.057667274
000010 7b ee 7e be d2 53 0a be a9 39 09 be 1d 68 29 3e
       -0.2489566 -0.13508537 -0.13400902 0.16543622
000020 f6 d4 cf bd e1 19 26 3e 65 83 80 3c 76 75 a8 3d
       -0.10148041 0.1622081 0.015687654 0.08225529
000030 52 33 67 3b 88 4d cc 3d 9f ea 4b 3e a3 c2 32 3e
       0.0035278392 0.099757254 0.1991372 0.1745706
000040 1d 48 7b 3e 7a 16 11 be 31 cb a9 bc 32 e7 34 be
       0.24539228 -0.1416873 -0.020726772 -0.17666319
000050 24 1e e8 3d 3e 0a e3 bc f6 fa 8d bd 3b ef 9c bd
       0.11333874 -0.027714845 -0.069326326 -0.07662817
000060 72 fb ca 3d a0 af 88 3d 2c f4 a2 3d d3 4c cd bb
       0.09911241 0.06674123 0.07956728 -0.0062652617
000070 ae 0d 1e 3d 31 ab a6 3c 09 e7 38 bd e2 c1 ca be
       0.038587265 0.020345302 -0.045142207 -0.39601046
000080 6a ad 06 be bf f2 05 3e 28 7a 0d bd b4 2d bb bd
       -0.1315209 0.13080882 -0.034540325 -0.091395766
000090 3a 55 d4 3e 0a dd 3a 39 d9 6b 50 3e 3d 61 97 be
       0.41471273 0.00017820686 0.2035364 -0.29566374
0000a0 1f d6 bc bc 0c 8e a1 3b db 09 b3 bd 9d 6d 4c 3e
       -0.02305132 0.0049302634 -0.08742114 0.19963689
0000b0 41 7b 59 3e 92 1c 86 bc c5 2c eb bc df d8 02 3d
       0.21238424 -0.016371045 -0.028707871 0.031945106
0000c0 10 fb 05 3d 7b 88 b0 3a 4f 95 6e 3d 31 4a 82 be
       0.032710135 0.0013468409 0.05824786 -0.2544723
0000d0 ab b7 c1 3d fd 38 1b be 3f 80 9a 3e ba f4 5e be
       0.0945886 -0.15158458 0.3017597 -0.21773043
0000e0 ce 0d d6 bd 79 01 6d 3d 36 8a 22 3e f2 d0 45 be
       -0.10451852 0.057862733 0.15873036 -0.19317988
0000f0 14 f2 2b bd 5d f1 d4 bd 41 08 9f bd 21 9e b6 3d
       -0.04197891 -0.10397599 -0.07765246 0.089168794
000100 87 4f 7b bd a1 48 05 3e cd 4b 64 be ab 60 0f 3b
       -0.06135514 0.13015987 -0.2229454 0.0021877687
000110 34 14 63 bd 60 d9 c3 bd 70 2a ec 3d 3a e4 98 3e
       -0.05543919 -0.09562945 0.11531532 0.29861623
000120 6f 0c 62 be 7d 57 9e bd 94 bc 96 bd f2 89 91 3e
       -0.22075056 -0.07731531 -0.07360187 0.28425556
000130 99 ea 0c 3e de 8d 86 3d ef 28 19 3d 1b 7f c6 bc
       0.13761367 0.06570028 0.037392553 -0.02423053
000140 4c cf d6 bd df 26 c5 bd d0 a8 1b bd 49 5a f7 bd
       -0.104887575 -0.09626555 -0.03800279 -0.120777674
000150 a1 99 44 3d 22 27 c7 bd ce a5 0d be 5a fc 4f 3e
       0.047998074 -0.09724261 -0.1383278 0.20311108
000160 f7 cb b0 bb 99 53 3c 3e 77 12 6b be cf 0b ee 3d
       -0.0053954083 0.18391265 -0.22956263 0.11623346
000170 06 4f 3c 3e 90 85 4a 3e 81 00 3d 3e 7d d0 6e be
       0.1838952 0.19777513 0.18457223 -0.2332172
000180 4c 24 f2 3d 5f b0 5e 3e ba 23 7e 3e 61 21 6b bd
       0.11823329 0.21746968 0.24818316 -0.05740488
000190 70 7a ef bc d5 94 84 3d d5 19 97 be a1 d8 2c be
       -0.029233187 0.064737 -0.29511896 -0.16879512
0001a0 be 8b 0f bd d4 33 2d bc 1d 8d c5 3c e3 77 bf 3d
       -0.035045378 -0.010571439 0.02411514 0.093490385
0001b0 bb d3 2c be 88 1d 0f 3b 5b 49 0f 3c 9f 61 10 3d
       -0.16877644 0.002183767 0.008745517 0.03524935
0001c0 ce b1 88 bd 46 d2 61 3d 5b 49 0f 3e 35 30 24 be
       -0.066745386 0.055132173 0.13992827 -0.16034015
0001d0 72 23 97 bc 34 60 5c bd 60 0c 27 3e e5 7a 61 3d
       -0.018449519 -0.053802684 0.16313314 0.055048842
0001e0 9c bc bd 3d c6 20 36 be 81 b0 b1 bc 8f 76 06 3d
       0.0926449 -0.1778594 -0.021690609 0.03282791
0001f0 c0 e7 b5 3d 31 5f 0c 3e b7 cc 1f 3b 76 5c 82 bd
       0.088820934 0.13708188 0.0024383494 -0.06365292
000200 80 57 46 3e a2 11 1d bd 25 f6 09 3c 7e a2 54 be
       0.19369316 -0.038346894 0.008420502 -0.20765111
000210 99 2c 52 bb 57 ed b4 3d 7d 9f 04 bc 81 e0 a1 bc
       -0.003207004 0.088343315 -0.008094666 -0.019760372
000220 df d5 37 bd 46 ae 10 be 12 fb fc bc e9 e6 1b bd
       -0.044881698 -0.1412898 -0.030881438 -0.03806201
000230 81 ce 24 3d 4b 61 89 bd 2c 92 46 bc 93 eb b8 bd
       0.040236 -0.0670801 -0.012119811 -0.09029307
000240 dd 47 9d bd 28 9a 29 be 0c 05 7d bd 7e 34 bf bd
       -0.076797225 -0.16562712 -0.06177239 -0.09336184
000250 29 3b d0 bc 9b 08 11 3e 04 a9 68 3d c4 15 a2 bd
       -0.025418835 0.14163439 0.05680181 -0.07914308
000260 83 ca 52 3d 83 ca 2f 3e 9f b8 d0 3c ad 2c b5 bd
       0.05146266 0.17167096 0.02547866 -0.08846412
000270 3b 49 21 3e e2 ee fa 3d dc 9b eb 3c 79 90 3d 3d
       0.15750591 0.122525945 0.028760843 0.046280358
000280 04 35 36 bd ff 38 8d bd ec b6 74 bd 81 74 0d 3c
       -0.044484153 -0.06895637 -0.05974476 0.008633734
000290 5a 02 da bd 33 f6 c8 bd 64 fe 2a be 15 35 3f be
       -0.1064498 -0.09812584 -0.16698605 -0.18672593
0002a0 5f e6 47 3c 6e 4a a7 bd 75 e2 82 bc f0 12 89 3c
       0.012200921 -0.08168493 -0.015977124 0.016732663
0002b0 82 80 b7 3c b1 87 18 bc c4 80 bf bd 3e d8 4a 3e
       0.022400144 -0.009309695 -0.09350732 0.19809052
0002c0 1f 61 ec 3c 1c 9c e8 bb 5b 2d 84 39 d2 40 0b 3d
       0.028854905 -0.007098688 0.00025210794 0.033997364
0002d0 76 03 9e ba d2 45 3f be a7 0c 20 be 28 7e 25 be
       -0.0012055475 -0.18678978 -0.15629826 -0.16161406
0002e0 bf 44 16 3d f5 88 a2 bd 60 de 1f 3d 2c 29 98 3d
       0.036686655 -0.07936279 0.039030433 0.07429728
0002f0 08 9e b1 bd 74 92 2a 3d e5 50 ef bd 14 d5 6a 3d
       -0.0867272 0.041643575 -0.11685351 0.057332113
000300 a4 54 ad 3d 9a 95 9b bc 76 04 03 3e 13 8f 02 be
       0.084634095 -0.018992234 0.1279467 -0.12749891
000310 5f b3 ab 3c ea 1a 1a 3e 8f f5 39 be 0d 6c e3 bd
       0.020959554 0.1504933 -0.1816008 -0.111045934
000320 59 56 08 3d 42 0c 88 bc 5d e0 cc be 3b 31 bd bd
       0.033285473 -0.016607407 -0.40014926 -0.092379056
000330 4b 50 d8 be ac 52 44 be f1 2e bc bd 53 9d 6a 3e
       -0.4224876 -0.19172162 -0.09188641 0.22911577
000340 0c 2b 07 bb 77 92 01 3e fc 63 a6 3e f7 a8 f1 3c
       -0.0020625023 0.12653528 0.32498157 0.029499514
000350 90 85 73 3d e7 d6 12 3c f5 b1 64 bd c2 7d a8 3d
       0.059453547 0.0089623695 -0.055833776 0.082271114
000360 c6 df bd bd 44 d1 f9 bd 71 8e 71 3d 50 b8 1d 3f
       -0.09271197 -0.121981174 0.058973733 0.61609364
000370 a5 06 9a 3e a6 73 83 be d0 3e 3e 3e ef a3 48 bd
       0.30083194 -0.2567417 0.18578649 -0.048984464
000380 43 dd d6 be f5 6b 33 be 4a c9 d6 bd 0a 2f 8b 3e
       -0.41965684 -0.17521651 -0.104876116 0.27184325
000390 60 82 62 3e 30 9a 51 be b5 28 be 3e 89 5f ab be
       0.22120047 -0.20468974 0.37140432 -0.33471325
0003a0 10 8a 8a be 59 a8 9b 3e a8 66 e5 be 03 ed 80 3e
       -0.27058458 0.30401877 -0.44804883 0.25180826
0003b0 82 ac f9 be e5 d1 8e be e8 3f 40 3e 77 7f 2d bf
       -0.48764426 -0.27894512 0.18774378 -0.6777262
0003c0 43 b7 5b 3d d1 42 d9 be 68 20 39 be 67 c7 5d 3e
       0.05364157 -0.4243379 -0.18078768 0.21658097
0003d0 40 af ba be 75 e9 fe bd 15 93 4c be 1b e5 ea bd
       -0.3646183 -0.12446872 -0.19977982 -0.1146948
0003e0 d5 39 21 be 1d 3e 82 3e b8 74 b3 3e ea b5 1c be
       -0.15744717 0.25438014 0.35049987 -0.1530377
0003f0 85 62 4e be 71 a7 a1 be 13 c7 9d 3e a1 e6 0b be
       -0.2015477 -0.3157306 0.30815944 -0.13662197

lstm.bias_ih_l0 f4 [400]
000000 66 d6 51 3d 51 0f 2b 3d 13 f0 3f 3e 07 b9 83 3d
       0.051229857 0.041762654 0.18743925 0.064317755
000010 ea d8 12 3d 32 36 a2 bd 99 75 d2 bd d4 b3 0c 3e
       0.035851397 -0.07920493 -0.10276336 0.13740474
000020 ff 7a 8a bd af 9b 03 3e 35 cf 17 bd cb 2b 6a 3d
       -0.06761741 0.12852357 -0.037062842 0.05717067
000030 ce f9 72 3d 6e e1 32 bd 1f 2c d3 3d e1 46 52 3e
       0.059320264 -0.043672018 0.1031115 0.2053485
000040 a6 c7 3c 3e 70 87 a0 3d 2f 85 c0 3d dc a7 08 3e
       0.18435535 0.07838333 0.09400403 0.13345283
000050 ce 26 37 3d 8b 79 25 3e a6 d5 05 3e ed ed b3 3d
       0.04471474 0.16159646 0.13069782 0.08785615
000060 ed 55 a4 bd 50 78 2f 3c ad d1 0d bc ca 09 54 bd
       -0.080242015 0.010709837 -0.008655948 -0.051767148
000070 a5 e5 a3 bd cb 28 ac ba 22 85 ea 3d 16 96 d6 3c
       -0.080027856 -0.0013134716 0.11451174 0.026194613
000080 cb 79 46 3d a6 fa ec bc e0 b1 8d 3c 47 91 45 bc
       0.048455995 -0.028928112 0.017296731 -0.012058563
000090 6b b4 2b ba 1d f6 2e 3d a0 04 cf bc fe d2 04 3e
       -0.00065500167 0.04271518 -0.02527076 0.12971112
0000a0 bd 5a ad 3d 77 ad 1e 3c c1 14 86 bd 26 7d 2e bd
       0.084645726 0.009684912 -0.06546927 -0.04259982
0000b0 20 f1 ac bd 14 ce fd 3c db a6 70 3d 12 f4 92 bc
       -0.084444284 0.030982055 0.058752876 -0.017938647
0000c0 16 c6 0d 3d a8 73 0b 3e 31 4b eb 3d 22 5e 8f 3d
       0.034612738 0.13618338 0.11488951 0.07000376
0000d0 ee 4b c9 3d b9 70 06 3e 76 9c 4c bd 56 7d 0a bd
       0.098289356 0.13128938 -0.0499539 -0.033810936
0000e0 bb 95 c6 3d 8d fa 68 3d d9 76 9c bd d4 94 a0 bd
       0.096965276 0.05687957 -0.07639856 -0.07840887
0000f0 14 72 84 3c e6 da 27 bd 39 bd 45 3d e7 00 fb 3d
       0.016167678 -0.040980242 0.04827616 0.122560315
000100 8c 04 a1 3d 64 56 b5 3d e4 68 60 3e 9e 6d 65 3d
       0.078621954 0.08854368 0.21915013 0.056012742
000110 1a 0e a2 3d 38 63 bb bd 9b 22 ab bd 15 87 1c bd
       0.07912846 -0.09149784 -0.0835621 -0.03821476
000120 ef d5 c1 3c 1f 9e 2f bd 4d 47 bf bd c5 50 18 3d
       0.023661582 -0.042875405 -0.093397714 0.037186403
000130 62 7d be bc af 07 d3 bd f8 73 95 3d ba b3 b8 bd
       -0.023253147 -0.103042 0.0729751 -0.09018655
000140 2c bf 46 3d 13 a1 89 3d d2 37 8b 3d eb f1 4c bd
       0.04852216 0.067201756 0.06797756 -0.0500354
000150 13 db c5 3b 71 99 b6 3d 3e 2e 34 3e 90 12 b4 bd
       0.0060380786 0.089159854 0.17595765 -0.08792603
000160 cd e1 dc 3d 60 b1 cf 3d 4b d4 86 3c 68 d4 ad 3c
       0.107852556 0.101412535 0.016458651 0.021219447
000170 b3 a5 af 3d 11 7e 0f 3e 73 72 38 bd 06 dc 5f bd
       0.085765265 0.14012934 -0.045031022 -0.05465319
000180 64 8d f8 bd 07 2b 65 3b dc 36 22 3d f8 09 88 3c
       -0.12136343 0.0034968273 0.0396031 0.016606316
000190 dd b4 79 bc 0b 53 37 bd 3f 7f 67 3e a1 0b 99 3d
       -0.015240875 -0.04475693 0.22607134 0.07472921
0001a0 10 d8 10 bd 7f 11 ad 3d 77 3f 20 3b 3a c5 0c 3d
       -0.035362303 0.08450603 0.002445189 0.034367777
0001b0 b9 8c 85 3d ce 0c 9a 3d 33 34 3d 3d 66 a1 ad bb
       0.06520981 0.075219736 0.04619236 -0.005298781
0001c0 cb b9 9a bd 68 68 d3 bd 81 dd 84 3c 58 0a 05 3e
       -0.075549684 -0.10322648 0.016218903 0.12992227
0001d0 3c d9 b1 bd 7a 46 30 bd 16 18 97 3d 1c 02 f4 3b
       -0.08684012 -0.04303596 0.07377641 0.0074465405
0001e0 96 bd fd 3c 7f ee 8f bd f3 69 2f 3e 18 b2 d5 bb
       0.03097419 -0.070279114 0.1713026 -0.0065214746
0001f0 d0 04 57 3d c3 39 92 3d dc 30 bc bd 7a 2b 4f bd
       0.052494824 0.071399234 -0.09189007 -0.05057857
000200 41 ef be 3d d1 64 dd bc 21 f5 d6 bc 28 1b 50 bc
       0.09322978 -0.027025612 -0.026239933 -0.012701787
000210 17 cc f9 bb 8f 7f d9 bd ae cf 2a bc 6e e1 1e be
       -0.0076232064 -0.10620033 -0.010425491 -0.15515682
000220 c8 3e 19 bd 31 54 66 bd dc 1a dd 3c 3d 33 52 bd
       -0.03741339 -0.056232635 0.026990347 -0.051318396
000230 1e 1e e8 bc 43 45 6e bd c1 9d ac bd e5 da 2e bd
       -0.028334673 -0.058171522 -0.08428527 -0.042689223
000240 01 d2 c5 3c 00 e5 d6 bd 01 88 c4 3d d8 5e 39 3d
       0.02414799 -0.10492897 0.09596253 0.045256466
000250 1e 78 4c 3d 3b 58 17 bc 3b a9 09 3c 31 4c d7 3d
       0.04991924 -0.009237344 0.008402164 0.10512579
000260 f2 b7 a1 3d 7f 5e e7 3c cf 70 c9 3c 06 b5 37 3d
       0.07896413 0.028243301 0.024589924 0.04485037
000270 b2 96 8a 3d be bf 1b 3c 05 8f 8f bd 9b 35 12 be
       0.06767024 0.009506164 -0.07009701 -0.14278261
000280 8a 93 ca 3d 3d 2f e1 bd c7 61 cc bd cf de 23 be
       0.09891422 -0.10995338 -0.09979587 -0.16002963
000290 58 33 47 bd c6 10 34 3d 15 a1 77 bc f7 14 ae 3d
       -0.04863295 0.04396131 -0.015114089 0.085000925
0002a0 a4 9c d7 bc 17 df 0a be 7e 82 e2 bc 44 6a b0 bd
       -0.02631981 -0.13561665 -0.027650114 -0.086140186
0002b0 4c 4d 7c bd c5 f3 42 3c c6 74 56 3c 89 a8 7b bd
       -0.061597154 0.0118989395 0.013089364 -0.061440025
0002c0 65 75 97 3d 5c 4c dd bd ff 4c 65 bd d2 94 5d 3d
       0.07395438 -0.1080558 -0.055981632 0.054097004
0002d0 79 6b 14 be 93 75 fe bd b0 17 8d bd 5b ba db 3d
       -0.14494123 -0.12424769 -0.06889284 0.10728904
0002e0 b1 a0 10 bc a1 5e f5 3d eb f8 3b be b8 3b a4 3c
       -0.008827374 0.1198094 -0.18356673 0.020048007
0002f0 49 93 34 bc 7c b3 32 bb e6 2a fd bc 13 36 a3 bd
       -0.011021444 -0.0027267626 -0.030904245 -0.07969298
000300 5b 89 07 bb 32 28 f5 bd de 50 e1 bd 6f 20 86 3d
       -0.0020681235 -0.11970557 -0.11001752 0.06549155
000310 3f c4 d7 bd c7 8d 90 3d 1b d9 35 bd 16 36 8f 3d
       -0.10535478 0.07058292 -0.0443965 0.06992738
000320 6a a2 fa 3c ef e0 12 bd f7 0c 92 3d 7b b3 f3 3d
       0.030595023 -0.035859045 0.07131379 0.118994676
000330 65 71 e3 bc 34 7a ce 3d a9 c0 5e bc 2b a7 db bc
       -0.027764032 0.10081902 -0.013595738 -0.02681311
000340 d3 bd 4b 3d 20 52 a7 3c 7a b1 65 bb 22 99 18 3d
       0.049741577 0.020424902 -0.0035048411 0.037255414
000350 4f 90 ad 3d 77 1b cf 3c 43 65 51 bd 2d 8f 38 bd
       0.0847479 0.025281651 -0.05112196 -0.045058418
000360 59 4c 4e bd 0c 25 6e bc b0 1b 68 3c 1a dd d7 3d
       -0.05036578 -0.0145352 0.014166757 0.10540219
000370 58 07 df 3c e6 bd f2 3c a7 95 88 3d e0 2a 92 3d
       0.027225181 0.029631566 0.06669169 0.07137084
000380 5c 19 2d bc 95 aa 02 3d 10 46 c7 bd d7 c7 8e 3d
       -0.010565128 0.03190096 -0.0973016 0.0697171
000390 ed 78 86 bd 96 59 de 3c 49 cd 94 3d 87 02 3a 3c
       -0.065660335 0.027142327 0.072657175 0.011353142
0003a0 de 04 50 bd e5 3f 65 3d 62 f7 04 3d 2e 49 71 3d
       -0.05078589 0.055969138 0.032462485 0.05890768
0003b0 a1 7a 9e bc ad 51 b4 bd cd 01 24 3d 03 7e 7e ba
       -0.019345583 -0.08804641 0.04004078 -0.0009708108
0003c0 ae 7e 11 3d 89 75 ba bc 7d 4e 15 bd 04 e3 ce bd
       0.0355212 -0.022761123 -0.036451805 -0.101018935
0003d0 bf 04 19 bd 60 6f 27 bd 93 66 47 bb d9 a3 48 3d
       -0.03735804 -0.0408777 -0.003042613 0.048984382
0003e0 6c b0 b4 3c d4 44 8b 3d 63 25 3e bd 6a a0 22 bd
       0.02205678 0.06800237 -0.046422374 -0.039703764
0003f0 6e 07 6b 3d 0d 0f aa bd 23 9a 0e 3d 8e 88 82 bd
       0.057380132 -0.08303652 0.034814965 -0.06373702

lstm.bias_hh_l0 f4 [400]
000000 e7 97 15 3e 11 8b 7f bb 36 85 8f 3e e8 bd 3f 3e
       0.14608727 -0.0038992802 0.2803132 0.18724787
000010 ae 6a f4 3d 5b a2 84 bd 60 af a9 bd d3 a9 98 3d
       0.1193441 -0.06476279 -0.08285403 0.074542664
000020 14 64 15 bd 65 38 02 3e 45 fe 39 3d 19 cb e2 3d
       -0.036472395 0.12716825 0.045408506 0.11073894
000030 1d 37 70 bc 92 4a 33 bd 63 33 ee 3d 03 0f 66 3e
       -0.0146615775 -0.043772288 0.11630895 0.22466664
000040 0b 20 aa 3d 27 83 3b 3d c0 29 65 3d 0b fa 06 3e
       0.08306893 0.045779373 0.05594802 0.13181321
000050 3c 12 ce 3d 86 3f 02 3e d3 9e 4d 3e 67 b1 f4 3d
       0.10062072 0.12719545 0.20080118 0.11947899
000060 6a 77 35 3d 36 b1 96 3d d4 6a 36 3d 8f 31 e6 bc
       0.044303335 0.07358019 0.044535473 -0.028099803
000070 e7 2f ac bc aa 3e 92 3d 9e 47 7b bc 4a 29 43 3c
       -0.021018935 0.071408585 -0.015336899 0.0119117
000080 87 b8 fe 3c 98 e4 01 3e 80 36 a9 bc cb 14 d6 3d
       0.031093849 0.12684858 -0.02065587 0.10453185
000090 09 7e 2d bd 32 f9 22 bd 6b 44 45 3c 0b 9f fb 3d
       -0.042356525 -0.039788432 0.012040238 0.122861944
0000a0 27 fe ad 3d 6c 87 1d 3d f9 d7 6d 3d 6f 64 0e bd
       0.08495741 0.038459226 0.058067296 -0.03476375
0000b0 3a 1f 3a 3d 14 39 0f 3d 97 2e 44 3d ba 57 51 bb
       0.045439936 0.034966543 0.047895994 -0.0031943158
0000c0 c2 54 77 3c 0c 85 eb 3d 9c ee d8 3c ee 3a 04 3e
       0.015095891 0.11499986 0.026480965 0.12913105
0000d0 e6 d4 10 ba 9b 97 a6 3d 14 c8 5c bc 51 da a5 bc
       -0.00055248884 0.08134385 -0.013475437 -0.020245703
0000e0 8c 7a 84 3e 98 b1 ab 3c 4c 37 39 bd a7 be 93 bd
       0.25874746 0.020958707 -0.04521875 -0.072140984
0000f0 e7 25 f3 3d 4c 9a df 3d a7 54 97 3d 72 02 86 3d
       0.11872464 0.10918102 0.07389193 0.06543435
000100 8a f0 a6 3d 37 13 d4 3d a0 82 68 3e 57 c0 a7 3d
       0.08151348 0.103552274 0.2270608 0.08190983
000110 74 cf 57 ba 39 ec 8f bb fb cd 8c 3d ab 8d a9 bd
       -0.0008232512 -0.0043921736 0.06875225 -0.08278974
000120 05 b9 8c 3c 16 88 12 3c da 75 6d 3d 20 f1 61 bd
       0.017178068 0.008943578 0.05797372 -0.055161595
000130 83 84 61 bd ef ae 81 3d c4 3d 57 3d bf 4f 68 3d
       -0.055058014 0.06332194 0.05254914 0.056716677
000140 52 a3 78 bd 5e 96 47 3d 8f c2 42 bd 4b 19 14 bd
       -0.06070263 0.048727386 -0.047548827 -0.036156934
000150 e2 04 18 bd 58 8e 30 3d ab db 31 3e 4c e6 b4 3c
       -0.03711403 0.0431045 0.17368953 0.02208247
000160 ba c8 18 3e 74 e4 85 bd 86 91 3e bd 9d 76 b9 3d
       0.14920321 -0.065377146 -0.0465255 0.09055827
000170 b7 e7 73 bd 94 fe 41 3e 89 6a 34 bd 47 62 55 bc
       -0.059547152 0.1894477 -0.044046912 -0.013023919
000180 a8 22 ee bd 09 cd 32 3c 36 2b 45 3d 83 5b 2c 3c
       -0.11627704 0.010913142 0.048136912 0.010519865
000190 61 6d dd 3d 11 76 59 3d dd 1b 3a 3e 62 5f ae 3d
       0.10811878 0.053091113 0.18174691 0.085142866
0001a0 40 cb 7c bd 61 a3 41 bd 0f 64 d9 bd 6d 48 12 bc
       -0.06171727 -0.04727495 -0.10614788 -0.0089284
0001b0 61 89 f6 bd 25 f6 fc 3b 12 33 c2 bd 3c ba 50 3c
       -0.12037922 0.0077197724 -0.09482397 0.012739714
0001c0 af f5 c9 bd 16 96 4f 3d 97 8c 93 3c 11 42 cf 3d
       -0.098613136 0.050680242 0.018011374 0.10120023
0001d0 29 b8 09 be 03 21 6e 3d 87 fa d1 3d 45 51 52 bd
       -0.13449158 0.05813695 0.102528624 -0.051347036
0001e0 95 f4 2a 3d ce 7d 98 bd c9 eb a3 3d 32 d9 a0 3c
       0.041737158 -0.0744587 0.08003957 0.019634817
0001f0 ae 5a 32 3c ef 29 69 bd d4 ce c6 bc 3f bc 26 3c
       0.010885878 -0.056924757 -0.024268545 0.010176717
000200 46 e6 b6 bd 9c 3c 1b 3c 4c e1 81 3c d1 26 b5 bc
       -0.0893064 0.0094749 0.0158545 -0.022113236
000210 95 ef 15 3d 6d 0f 05 bd b0 5f ec bd 0a 33 89 bd
       0.036605436 -0.032485414 -0.115416884 -0.06699188
000220 2b 43 4f bd 2e 87 9b 3d 70 ce 8b bd 66 b8 b3 3d
       -0.050601166 0.07594143 -0.06826484 0.087754056
000230 83 e6 ff 3d c4 6f d0 3c 8d 2c 5e bc 79 b6 23 3b
       0.124951385 0.025443919 -0.013560426 0.0024980588
000240 df 1f e8 bc 58 44 bf bd 41 5c 23 3c 82 99 9a bc
       -0.02833551 -0.093392074 0.0099707255 -0.018872026
000250 84 2b ac 3c 17 43 9c ba 63 47 93 3c fe 6a 1f bd
       0.021016844 -0.001192185 0.017978376 -0.038920395
000260 f0 b1 d1 bc 86 1d ed 3c f6 0b 19 3d d1 7b f3 3c
       -0.025597543 0.028944742 0.037364922 0.029722126
000270 17 98 4e 3e b3 99 a8 bd c1 8e d5 bd be ce cd bd
       0.20175205 -0.08232441 -0.10427619 -0.100491986
000280 04 fd 5f bd 8d 26 93 bd d9 2c 23 bc 63 21 fb bd
       -0.054684654 -0.07185087 -0.009959423 -0.122622274
000290 33 26 5b 3d a2 be a1 3c 62 df 52 3c 8e dd 25 bd
       0.053503226 0.019744221 0.012870641 -0.040494494
0002a0 a2 ac 1c bd e8 51 4f 3d a5 43 b9 3d 25 8e 23 bd
       -0.038250573 0.05061522 0.09046105 -0.03993048
0002b0 fe b1 a4 bd a5 cb 9b bd 08 d0 a0 3b ba 8d 41 3d
       -0.08041762 -0.076072015 0.0049076118 0.0472543
0002c0 76 8e 32 bd 71 f1 98 bd e6 53 29 bd 67 89 2a bd
       -0.043592893 -0.07467926 -0.041339777 -0.041634943
0002d0 1c 5b 6b 3c 98 57 cc bd 8d dd b7 bd 44 01 ea 3c
       0.014364984 -0.09977645 -0.08977804 0.028565057
0002e0 63 90 66 bd 11 18 46 3d a6 a7 45 3b 6c af ce 3d
       -0.05629004 0.048362795 0.003015974 0.10092053
0002f0 89 91 2d 3d 91 7c aa bd 12 c4 f0 bc 93 4c c7 bd
       0.04237512 -0.083245404 -0.029390369 -0.09731402
000300 b9 fd 02 bd f9 5c 83 bc 21 bd 00 be a0 6a 78 3c
       -0.03198025 -0.016035544 -0.12572147 0.01516214
000310 bc 79 f3 bd 38 54 13 bd 2a 5f 1f bd 7b 34 d9 bb
       -0.11888453 -0.03596899 -0.038909115 -0.0066285706
000320 e3 87 b6 bd 75 4b bf bb 9f ea 7e bd 5f 3e 3b bc
       -0.08912637 -0.0058378526 -0.06223547 -0.011428445
000330 4c 12 7e 3d d8 9f 88 bc 67 ac 03 bd 46 05 d7 b9
       0.062029168 -0.016677782 -0.032146838 -0.00041011925
000340 ad 1e 88 bc 2c af ce bd 92 90 c8 3a 57 c5 cf bd
       -0.01661619 -0.10092005 0.0015301874 -0.101450615
000350 89 0e 1a bd 90 22 f5 bd 90 e3 03 3c a9 e2 90 bb
       -0.037611518 -0.11969483 0.008049861 -0.0044215512
000360 d2 e7 62 3d 6a a5 85 3d 63 20 80 3d 21 57 42 bd
       0.055396862 0.06525691 0.06256177 -0.047446374
000370 e4 8e 8d 3d cf 13 c3 bc 6d 8b a0 bc 9b 4e c1 3c
       0.0691202 -0.023813156 -0.019597733 0.023597052
000380 45 0b db bd 78 80 3a bd f2 c0 59 3d a8 d2 eb bb
       -0.10695509 -0.045532674 0.053162523 -0.007196743
000390 ab 60 e8 3d 49 1e 7e bd d4 9b 39 3d 75 03 df 3c
       0.11346563 -0.0620406 0.045314625 0.027223328
0003a0 64 a5 5f 3d 3b 88 b1 bd 0c 55 87 bd 1b 11 20 3d
       0.05460109 -0.08668562 -0.06608018 0.039078813
0003b0 1f eb 2c bd 35 66 14 bd d9 e3 00 bc ac 82 7c bd
       -0.042216416 -0.036230285 -0.007866823 -0.061648056
0003c0 d4 c9 2c 3d dc a2 5a bb 6b 16 95 3c 28 96 c0 3d
       0.042184666 -0.0033361232 0.018199166 0.0940364
0003d0 12 0d 85 bd 94 06 25 3d 04 d8 bf 3c cb a9 8e bd
       -0.064966336 0.040289477 0.023418434 -0.06965979
0003e0 f2 49 a2 bc a9 4c 08 bd 93 05 d1 3d 2a b5 7b bc
       -0.01981065 -0.033276234 0.10206141 -0.015363017
0003f0 db fc a9 bd 93 50 bd 3d 8a 26 21 bd cf a8 f0 bc
       -0.083001815 0.09243884 -0.039343394 -0.02937737

lstm.weight_ih_l1 f4 [400, 100]
000000 75 59 e9 3b 9d d3 92 3c c2 1f ec bd b9 75 99 bc
       0.00712126 0.01792317 -0.11529495 -0.018732892
000010 c3 fa f7 3c ca 4d 01 bd 9d 59 98 bc 74 fa 58 3d
       0.03027094 -0.031568326 -0.018597418 0.052973226
000020 7d f3 8c 3d 36 e5 bb bd 88 0a 29 3e ab b0 a8 3d
       0.06882379 -0.09174578 0.16507924 0.08236822
000030 19 7d dc bc 93 eb fc 3d 63 b8 d1 bc 25 49 3a 3d
       -0.02691512 0.1234962 -0.025600618 0.045479912
000040 5e 0a 18 be ec d6 8b be 5c ce 68 3c e3 ff d1 bc
       -0.14847705 -0.2731241 0.014209356 -0.025634712
000050 7e a8 95 3e db 1d 09 3d a9 e0 65 be ad f2 c7 bc
       0.29230112 0.033475738 -0.22448982 -0.024407709
000060 0a 75 6e bd ab f4 94 3c 31 d3 aa bc 47 d7 e4 bd
       -0.058217086 0.018183073 -0.020852657 -0.111738734
000070 74 f6 0d 3e e3 f8 4f bd cc 76 d2 3c 24 62 51 be
       0.13863546 -0.050774466 0.025691412 -0.20447594
000080 8f e9 0a be d6 7c 06 3e 84 76 b8 bd 8d 76 31 3d
       -0.13565658 0.13133559 -0.0900698 0.04332595
000090 1b e1 26 bc 29 4e d4 bd b4 a7 3f 3d e2 19 f5 bc
       -0.010185505 -0.1036647 0.046790794 -0.029919568
0000a0 e5 e2 2a 3e d8 72 1b be 8c 16 dd bc 01 2b a4 bb
       0.16688116 -0.15180528 -0.02698829 -0.0050100093
0000b0 5a 73 cc 3d 9f 93 c3 bd 83 8e 88 bd f3 b0 63 bb
       0.09982939 -0.09549641 -0.06667807 -0.003474292
0000c0 be 73 2a 3c a4 ac fd 3d 0b 3f 7c 3e ff 2d 02 3d
       0.010403572 0.12386444 0.24633424 0.031782147
0000d0 8c 3d 1f be e2 b1 0d be 1f 1a 1c 3c 97 a2 05 be
       -0.15550822 -0.13837388 0.009527712 -0.13050304
0000e0 2f 3b 9c 3d 9e 7e a3 bc cd 9e 17 3d 17 a6 73 bd
       0.07628476 -0.019957837 0.03701668 -0.059484567
0000f0 3e 7c 08 3e ca 13 e2 3c 41 8b e5 bc 71 32 30 bc
       0.13328645 0.027597327 -0.028020503 -0.010754214
000100 92 90 2c 3d b8 83 9c bd 08 7b 89 be f2 fb 87 bd
       0.04213006 -0.07642311 -0.26851678 -0.06639852
000110 cf 07 b3 bd 7a c0 d9 bd 90 8b 94 bd 85 e8 c5 3d
       -0.08741724 -0.10632415 -0.07253182 0.0966349
000120 b6 38 04 be f9 62 27 be 6e f3 5d bd 05 00 59 3d
       -0.12912259 -0.16346349 -0.05418723 0.052978534
000130 54 ed 16 3c 47 5e d1 bd 3d c7 26 3e aa cd 04 3e
       0.009211857 -0.1022306 0.16286941 0.1296908
000140 ac 69 a4 bd d1 af 00 3d 0e 27 8f 3b fa 03 8e bc
       -0.08027968 0.03141767 0.0043686694 -0.01733588
000150 f2 35 8e 3d 67 4a 5b bd b7 4b 15 3e c9 9f 0b 3e
       0.06943883 -0.053537752 0.14579664 0.13635172
000160 86 41 99 bd cc f3 1f 3e d7 0e 02 be 26 9e da bb
       -0.07483201 0.15620345 -0.12700973 -0.006671685
000170 9b a1 05 be bb b0 ad bd d4 f7 3f 3e 9e f7 8d be
       -0.13049929 -0.08480974 0.18746883 -0.2772798
000180 32 5a 57 3d 8e a5 f3 3d 5c 61 5a bd 58 2c e5 3a
       0.05257625 0.118968114 -0.053315505 0.0017484529
000190 39 90 c7 bc 7a 83 67 bd 47 0c 39 be e2 10 08 bd
       -0.024360763 -0.05652187 -0.1807109 -0.033219226
0001a0 ab 35 77 3d 12 e5 07 be 3c fd f9 bd 08 ee 15 3e
       0.060353916 -0.13270977 -0.12206504 0.14641583
0001b0 f8 5f 9f 3d 50 bd e0 bd ad 65 94 3d 17 99 35 3d
       0.077819765 -0.109736085 0.072459556 0.04433545
0001c0 82 54 9f bd 1a 50 9f 3d b8 e2 1c 3e df 89 91 bd
       -0.077797905 0.0777895 0.15320861 -0.07106375
0001d0 7b 20 11 be 21 ce 99 bd 7b c2 22 3d 42 f7 02 3e
       -0.14172547 -0.07510019 0.039736252 0.12789634
0001e0 a2 bc 38 3e 39 fe de bd d1 8a 32 be cb b0 2b 3e
       0.18040708 -0.10888333 -0.17435767 0.1676666
0001f0 6f 83 3c bd 9e c9 74 3c 90 b6 e2 3c 01 22 d6 bc
       -0.046023782 0.014940647 0.027674943 -0.026139261
000200 a6 a7 43 3d 5a 00 8d bd d0 39 b0 3d c7 37 7d 3c
       0.047767304 -0.06884833 0.08604777 0.015455193
000210 22 8b ab bd 66 20 19 3c b9 4c d8 bd 96 69 a1 3c
       -0.08376147 0.009346103 -0.10561509 0.019703668
000220 d0 6b 38 3d fe 99 28 be 4b 9a 08 3e 4f a1 98 3d
       0.045024693 -0.16464993 0.13340108 0.07452642
000230 15 2d 8f 3d f3 f7 e4 bd 39 d7 55 bd 4b de a1 3c
       0.069910206 -0.11180105 -0.052207205 0.019759318
000240 13 15 5a 3c 9a 34 b1 bc 3f de 08 bd 69 6c 97 3d
       0.013310689 -0.021631528 -0.033415075 0.073937245
000250 5f 69 de bc 95 18 00 3d 39 f8 17 3e bf ed a8 bd
       -0.027149854 0.031273443 0.14840783 -0.082484715
000260 e0 d2 99 bd 01 54 eb 3d ad 4d f1 3d a7 23 9d 3c
       -0.07510924 0.11490632 0.117823936 0.01918204
000270 aa 6b 5c 3e 06 3f 86 3d 23 52 81 bd 5f 48 8b bd
       0.21525446 0.065549895 -0.063144945 -0.06800913
000280 70 fe 48 3d b5 c7 b4 3c 71 d8 d9 3d 44 10 d3 3c
       0.049070776 0.022067884 0.10636986 0.025764592
000290 73 ea 60 bc 02 9e 31 be 62 c4 be bd 8d f0 41 bd
       -0.013727772 -0.17345431 -0.09314801 -0.047348548
0002a0 51 ae ab 3d ef 36 de bb a9 d8 00 be e3 88 84 3d
       0.083828576 -0.006781451 -0.1258265 0.064714216
0002b0 a3 cd 79 3c 07 39 af bd c4 97 cb 3c e8 d2 29 3e
       0.0152467815 -0.08555799 0.02485264 0.1658436
0002c0 0f 91 d0 3d 2c b4 ec 3b 0f fe fb bc 3d 06 eb 3d
       0.10183918 0.0072236266 -0.030760793 0.11475799
0002d0 b7 34 0c be d8 b8 23 be 9b fb 1e be c4 f7 83 bd
       -0.13691984 -0.15988481 -0.15525667 -0.06443742
0002e0 bf ad 1b 3e 7b 87 10 3d 60 a0 06 3e 22 9d b5 3c
       0.15202998 0.035285454 0.13147116 0.022169653
0002f0 11 43 c0 bd a0 f8 af 3d 54 5a 87 bd c0 d5 de 3d
       -0.09387792 0.08592343 -0.066090256 0.10880613
000300 0d e7 0d bd da 9e 8a be 47 65 e5 3b 7b 36 36 be
       -0.034644175 -0.2707432 0.0070005986 -0.1779422
000310 66 28 9a 3d b3 d3 5a bd 74 2c d5 bd 8c 13 9a bd
       0.07527237 -0.05342455 -0.104088694 -0.075232595
000320 fa 94 a0 3c be e5 e0 3d e3 4f 2a bd 10 04 aa bd
       0.019602288 0.1098132 -0.041580092 -0.08301556
000330 f8 8d c3 3c 9e e6 98 3d 8e 9b fa bd 3c 4b 8b bd
       0.023871407 0.07465862 -0.12236701 -0.06801459
000340 76 36 ad bc e4 2d db bc d0 4e 14 3e 6b c2 3c 3d
       -0.021144133 -0.02675528 0.1448319 0.04608385
000350 6e 5b 50 bd 7a 7a b2 3d a1 cf f8 bc d3 7c f3 bc
       -0.050868444 0.08714767 -0.030372443 -0.029722607
000360 5d 8a 16 be 18 6c 8f bc b5 62 1d 3e 01 21 ee bc
       -0.14701219 -0.017507598 0.15369685 -0.029068472
000370 79 c2 4f 3e 7b 89 55 bd d0 23 51 be 9d 12 63 3d
       0.20289029 -0.052133065 -0.20423818 0.055437673
000380 cf 2e 83 3d e5 05 4f 3d fe 63 93 bd 74 55 9a bd
       0.064054124 0.05054273 -0.07196806 -0.0753583
000390 cb 5e 88 3d 50 9c 3b 3d c8 6a 10 bd d0 7c f6 3a
       0.06658705 0.045803368 -0.035258085 0.0018805508
0003a0 59 2a 21 bd 30 c6 a8 bc 7f aa 15 bd 1f ab c2 bd
       -0.039347026 -0.020602316 -0.03653955 -0.09505295
0003b0 dd 63 f9 bc f3 ed 2b bd 75 69 80 bd 71 9b 3f bc
       -0.030443126 -0.041974973 -0.06270114 -0.011694775
0003c0 a0 4e 6d bd ca 1a 05 be 3c 34 5b bd be 34 6b bb
       -0.05793631 -0.129985 -0.05351661 -0.003588959
0003d0 a6 f0 26 3e be 5c 05 be 35 5c 1c 3d b9 7b 7a 3d
       0.16302738 -0.1302366 0.038173873 0.061153147
0003e0 e2 94 05 3d a2 92 a7 bd 10 ed 86 3d 52 07 29 3d
       0.03261269 -0.08182265 0.06588185 0.041266747
0003f0 ef f3 3b 3e 99 db cc 3d 41 be 42 bd a4 00 81 bd
       0.18354772 0.100028224 -0.04754472 -0.0629895

lstm.weight_hh_l1 f4 [400, 100]
000000 60 ca 5a 3c bf 85 03 3d d4 42 5f 3e 25 61 24 3e
       0.013353914 0.032109972 0.21802837 0.16052683
000010 4f 6f 8f bd b7 8f e6 3c db af 8a bd 20 f5 33 bd
       -0.07003652 0.0281447 -0.06771823 -0.04393494
000020 95 f4 02 bd 49 07 43 3e 82 03 f8 bd fe d2 a5 3c
       -0.031971533 0.19045748 -0.12110044 0.02024221
000030 66 89 6a bc af a4 0a 3e 3d d8 7b be f0 c7 82 be
       -0.014314985 0.13539384 -0.24594207 -0.25543165
000040 1e cc 71 3e 4a 6d 00 be 0e 9e dc bd 03 3c c1 3d
       0.23613021 -0.1254169 -0.10772334 0.094352745
000050 cb e1 23 bc 0a c7 a9 bc d3 3d ad 3d 06 7e 64 3b
       -0.010002564 -0.020724792 0.08459058 0.0034865155
000060 71 22 6a bd a4 2c 6c 3d 0a b0 33 3e b7 58 16 be
       -0.057161752 0.05765976 0.17547622 -0.1468228
000070 f1 89 e6 bd 54 ad ab bd 99 67 ea 3b 08 83 6f bc
       -0.11256779 -0.08382669 0.007153463 -0.014618643
000080 54 1b 11 3e d8 21 87 3d 12 72 da bc f6 5a e7 3d
       0.14170581 0.06598252 -0.026665721 0.11296646
000090 a2 60 2f bd 1d f9 96 bd fa fc d4 bd 62 02 a5 3c
       -0.042816766 -0.07371733 -0.10399814 0.020142738
0000a0 cc b9 09 3e fe 1f d9 bd ec 8e 2b 3e fd c8 ff 3d
       0.13449782 -0.10601805 0.16753739 0.12489507
0000b0 df d0 09 be fd 38 8c 3d 03 f2 e7 bd 0b 97 51 3d
       -0.13458584 0.06846807 -0.11325457 0.051169436
0000c0 16 7b 36 be f2 99 50 3d 9c b0 aa 3d 4c c6 60 be
       -0.17820391 0.050928064 0.08334467 -0.21950644
0000d0 88 61 42 3e 3c 1d ae 3d 5a 96 ef 3d db 4e 1b 3e
       0.18982518 0.0850167 0.11698599 0.151668
0000e0 e6 ff d8 39 36 a7 85 bd 49 c6 1d be 8b 27 ee 3d
       0.0004138939 -0.065260336 -0.15407671 0.11628636
0000f0 59 e9 a7 bd 8b 62 e1 3d 83 54 76 bc 8b 7e 7f 3e
       -0.081988044 0.11005124 -0.015034798 0.24950616
000100 5e e3 ca 3d 7d f6 99 bd bb 60 1f 3c ed 75 af bc
       0.09906648 -0.07517717 0.009727652 -0.021418536
000110 9e 6d 4e bc b7 19 16 3e 64 ff ae 3d 7c 35 56 be
       -0.012599377 0.14658247 0.08544806 -0.2091884
000120 2f da 05 3e e3 5b 93 bd 4b fd 88 bd d5 09 60 3c
       0.13071512 -0.071952604 -0.06688937 0.013674219
000130 3a a6 f6 bd 36 64 e5 bd b8 bd 14 be 2f 8a 03 3e
       -0.12043424 -0.11200754 -0.14525497 0.12845682
000140 e9 90 1d 3e bf 4a 21 be 7f 83 0d 3d 68 94 da 3b
       0.1538731 -0.1575117 0.034549233 0.0066705234
000150 38 9e 93 3d 78 eb 9d bb 8a ae 47 3e dd bb 92 3c
       0.07207912 -0.00481933 0.19500175 0.017911846
000160 15 6a b6 bd 96 86 22 3d 3a 49 a9 3c b3 c6 53 3e
       -0.08906952 0.039679132 0.0206648 0.20681266
000170 85 d6 c3 3d 67 59 e2 bd 60 6f e7 3d 07 88 76 3e
       0.09562401 -0.110522084 0.1130054 0.24075328
000180 b9 22 d4 bd ef e1 42 bd 55 47 1b 3e e9 d4 c7 bd
       -0.10358185 -0.04757875 0.1516393 -0.09757406
000190 3d d8 a4 3c e2 20 3e 3d cc 4e d5 3d 92 7a 09 3e
       0.020122642 0.04641808 0.1041542 0.13425663
0001a0 fc 2a dc bc c0 7e f8 3d 3a a6 2b 3b eb 61 27 bc
       -0.026875965 0.12133551 0.0026191608 -0.010216217
0001b0 d1 7c ca bd 59 a3 14 3e 7d 88 3a 3d b4 68 90 bd
       -0.09887088 0.14515437 0.04554032 -0.070512205
0001c0 ab 05 a0 bc 9f da af 3c 2e c2 95 be a8 a5 7d be
       -0.019533953 0.021466551 -0.2924971 -0.24770224
0001d0 54 13 ce 3d 2e fc 2c bd 42 a7 3e 3d 92 72 6f 3d
       0.1006228 -0.042232685 0.04654623 0.058458872
0001e0 be 6c a2 bc d4 6f 3f 3d bb f6 4f bd 10 b1 fe 3c
       -0.019827243 0.046737507 -0.05077241 0.03109029
0001f0 3e 31 97 3c 6d cc 12 3d 4a ee 83 3d e6 8e 1f bd
       0.018456098 0.035839487 0.064419344 -0.038954638
000200 02 47 a6 3d 1d d3 7a bd 3b c2 91 bd 2b ae a7 3a
       0.081190124 -0.06123649 -0.07117125 0.0012792995
000210 8c c2 82 3d bf b3 a9 bd f0 ff 0e be be dc 4e 3e
       0.06384763 -0.08286237 -0.1396482 0.20201394
000220 84 ab d6 3c a5 12 02 3c bb 2b 26 3d 52 c3 47 3d
       0.026204832 0.0079390155 0.04056905 0.048770256
000230 fe d6 33 3d 6a 8d d8 bb 14 b0 8e 3d d4 60 6c 3d
       0.043906204 -0.0066086547 0.06967178 0.05770953
000240 a7 62 40 be 1c 64 06 bd 72 c6 4f bd dc de 20 3d
       -0.18787633 -0.032810315 -0.05072636 0.039275035
000250 23 46 ee bd 7e 57 9c 3d 4e 88 12 3e 69 8b 04 be
       -0.11634471 0.07633875 0.14309809 -0.12943806
000260 81 1f 1f 3e fa 2f 55 bd bb 43 13 3d 0f c5 a3 3d
       0.15539362 -0.052047707 0.035953265 0.0799657
000270 5d 61 3a 3c 17 df c6 3d 93 35 01 be 8b f2 d9 bd
       0.011375752 0.0971052 -0.12618093 -0.106419645
000280 31 3d fa bd ec cb 46 3c d3 cd ce 3b 78 75 85 3d
       -0.122187026 0.01213358 0.0063111573 0.06516546
000290 81 6b a9 3c 26 94 10 be 36 e5 d2 bc 4e 4f b5 bb
       0.020681145 -0.14119014 -0.025744062 -0.0055331355
0002a0 8d 9d 5a bd d9 4c 6e 3d 1a 95 cb 3d e1 39 e4 bd
       -0.05337291 0.058178756 0.09940548 -0.11143852
0002b0 86 55 6a 3d 82 9b fd 3c 2c 2b bf bc 71 a1 57 3c
       0.057210468 0.030957941 -0.023336016 0.013161049
0002c0 13 b7 bd bd cc e5 36 3d 20 12 ea bd 2b 5b 0f 3e
       -0.09263434 0.044652745 -0.11429238 0.13999622
0002d0 72 b6 24 3e 25 14 49 be f4 a1 2b bc a9 6a 1b be
       0.16085222 -0.19636591 -0.010475624 -0.15177406
0002e0 d4 3f 54 bd 83 9c 43 3d ec e4 eb bc 83 6f 15 bd
       -0.051818684 0.047756683 -0.028795682 -0.0364833
0002f0 c8 f3 b8 bd 1e de de 3d a3 50 66 bc 7d 21 fd 3c
       -0.090308726 0.10882209 -0.014057311 0.030899758
000300 03 74 11 be 05 45 09 be f1 80 c1 3d 3b fa 63 3b
       -0.14204411 -0.13405235 0.09448422 0.00347866
000310 3e c3 57 bd 60 d3 59 bd e2 fa 6c bd a6 3d 01 bc
       -0.05267643 -0.0531801 -0.057856448 -0.007888233
000320 3c 1c 7f bc b2 06 52 bd 07 90 ba 3c de e7 4f 3c
       -0.015570696 -0.051275916 0.022773756 0.012689559
000330 47 98 d6 bd c3 bd 80 bd 9c f5 82 3d 61 1d 73 bd
       -0.10478263 -0.06286194 0.063945025 -0.05935419
000340 b9 67 bb bb 4d be 45 3e 48 ee 55 bd ab 30 d4 3c
       -0.005719152 0.19310875 -0.052229196 0.025902113
000350 6d c8 51 bc 26 20 f3 3d c4 9c 83 bc 9c b2 c5 3d
       -0.012804133 0.11871366 -0.016065963 0.09653208
000360 fe a8 ba 3d fa 70 57 bb 16 40 95 bd e8 c5 b3 3d
       0.09114264 -0.0032873736 -0.07287614 0.08777982
000370 61 67 51 be 5c 65 9d 3d 81 18 a9 bd 66 df 40 3d
       -0.20449592 0.076853484 -0.08256627 0.04708805
000380 36 47 b6 3d 26 c8 86 bd da a0 c9 3c 40 c6 2d 3e
       0.08900301 -0.06581144 0.024612833 0.16970158
000390 6e 10 78 bd 35 3b b2 bd ec 6d 6d bd c4 a7 0e 3d
       -0.060562544 -0.08702699 -0.057966158 0.034827963
0003a0 4e 22 ac bc cb 0e 14 3b 70 61 d0 bd a6 fe 5d 3d
       -0.021012451 0.0022591825 -0.10174835 0.05419793
0003b0 79 30 a4 bd f5 e2 0e 3d f6 16 a7 bc b0 3c 12 be
       -0.08017058 0.03488441 -0.02039669 -0.14280963
0003c0 cc ac 60 3a 60 e9 59 3d f0 ff a2 bc 84 6b 87 3d
       0.00085706706 0.05320108 -0.019897431 0.06612304
0003d0 9f 8d 1e be 38 52 78 bd 5a 4c 03 3d 6c 85 40 bd
       -0.15483712 -0.060625285 0.032055236 -0.04700224
0003e0 f0 fe a0 bd fa 3e a5 3b 38 7b f3 3c 74 fc cf 3d
       -0.078611255 0.005042908 0.029721841 0.101555735
0003f0 7b fd 25 bd 53 9f cd 3b eb 87 68 bd 1d c2 97 3d
       -0.04052494 0.0062750964 -0.056770246 0.07410071

lstm.bias_ih_l1 f4 [400]
000000 92 74 e2 3d 0f 78 0c 3d 69 89 da 3d fa f3 b2 3d
       0.1105739 0.034294184 0.1067074 0.08737941
000010 50 9a e3 3d 56 19 fb 3d 00 32 86 bd 01 ae 56 3b
       0.11113417 0.12260692 -0.065525055 0.0032757523
000020 b4 40 de 3d 70 55 ff 3d cb ad ca 3d 5b 91 51 3d
       0.10852185 0.12467468 0.0989643 0.051164012
000030 5b d4 81 3d 94 1f 03 bd 83 72 1a 3e 61 e4 30 3d
       0.06339332 -0.032012537 0.15082745 0.04318655
000040 1f d2 9a 3d a0 e2 04 3e b8 c9 94 3d 43 20 75 3d
       0.07559609 0.12977076 0.07265037 0.05984522
000050 16 e6 00 bc 38 f3 d8 bc 67 43 5d 3d c5 c4 51 3e
       -0.007867357 -0.026483163 0.054019358 0.20485218
000060 eb 21 7f 3c f5 69 21 bd 80 a7 37 3e 46 da 33 3e
       0.0155720515 -0.03940769 0.1793499 0.17563733
000070 c4 4b a7 3d 54 13 51 3d 07 ac ee 3d ab 50 b9 3d
       0.08168748 0.051043823 0.11653905 0.09048589
000080 7c d9 6e 3d c6 f5 68 3d 0b 37 1f 3c ae 21 1e 3e
       0.058312878 0.056875013 0.009717713 0.15442535
000090 39 93 74 bd c0 71 ef 3d 64 5b 5c bd a4 2c 4b 3e
       -0.059710715 0.11691618 -0.053798094 0.19841248
0000a0 af 54 8b 3e 53 e6 91 bd 47 10 e9 3d 5a a3 3c 3d
       0.27213046 -0.07124009 0.11380058 0.04605422
0000b0 14 e2 fe 3c ed a9 dd 3c 0b 42 ad bd b8 d6 d0 3d
       0.031113662 0.027058566 -0.08459862 0.10197204
0000c0 d8 9f 7c 3e 5d 5a 7b 3e 9d 6e 7e bd 4d cb 3e 3d
       0.2467035 0.2454619 -0.062117208 0.0465806
0000d0 06 c3 1e 3e 9f 2b a5 bc 20 fa 2e 3e ee 20 ad 3c
       0.15504083 -0.020162402 0.17087603 0.021133866
0000e0 ef f0 93 3d 0e 1b 0c 3e e2 8c 1e 3e e5 de ab bd
       0.07223689 0.13682196 0.1548343 -0.08392123
0000f0 ce 0e fb 3d 77 ca 64 3d a9 ab d1 3d 91 79 e0 3d
       0.12258683 0.055857148 0.1023782 0.10960687
000100 81 4a 28 3d 0e 36 81 bd 79 81 6e bd dd 9f 89 3e
       0.041086677 -0.06309138 -0.058228943 0.26879779
000110 ca 46 29 3d 2e 0a c0 3d 28 b0 61 bd 03 e4 f4 bc
       0.041327275 0.093769416 -0.055099636 -0.02989388
000120 a1 4b 78 3d b3 2e 3b 3e ac 13 82 3d 51 37 ec 3d
       0.060619 0.18279533 0.06351408 0.11533988
000130 e3 92 8f 3c 71 d7 86 bd 07 52 d8 3d 96 d0 d1 bd
       0.017526096 -0.06584061 0.105625205 -0.10244863
000140 96 96 0d 3e dc 5b 30 3e c2 5f 6a bc 6e 17 27 bd
       0.13826975 0.17222542 -0.014305057 -0.04079383
000150 b1 3f 25 bd 5a e5 c1 3d ec 46 af 3e 5c 22 19 3e
       -0.040343944 0.094675735 0.34233797 0.14954513
000160 0b b3 1a 3c 39 29 88 3d 68 f6 2c 3e 11 5f cd 3d
       0.009442101 0.066484876 0.16890872 0.10027898
000170 8c ef 08 3d 24 8e 98 bd 01 17 c5 3d d5 7e 43 3e
       0.033431575 -0.07448986 0.09623528 0.19091351
000180 51 91 91 bd af 1b c0 3d 55 ea f7 3e 5b 04 97 ba
       -0.07107795 0.0938028 0.4842097 -0.0011521684
000190 70 6a 6f bd 26 32 e7 3d d2 28 1b 3d 3a 7e 50 3d
       -0.058451116 0.11288862 0.037880726 0.05090163
0001a0 4d f6 0c 3d 63 83 09 be 21 33 08 be e5 a2 78 bd
       0.03441458 -0.13429026 -0.13300754 -0.060702223
0001b0 d1 ca 8f 3c 84 e8 62 be ed 49 b8 bd ba 51 0a be
       0.017552765 -0.2215901 -0.08998475 -0.13507739
0001c0 90 e8 5d 3d 90 da c6 bd 1b 88 86 3d 24 a5 f6 bc
       0.054176867 -0.09709656 0.06568929 -0.030108042
0001d0 08 c0 78 bc 55 5e 0f bc 99 0f 0c be 6e 75 de bc
       -0.015182503 -0.008750518 -0.13677825 -0.027155604
0001e0 14 41 90 bd 77 5b 5e bc 3c a9 07 be 21 2b 50 3d
       -0.07043663 -0.013571612 -0.13248152 0.05082238
0001f0 5d 76 5f 3c 5f b2 63 3d ff bc 8c bd df 88 a1 bd
       0.01363906 0.05559003 -0.06871986 -0.07887434
000200 71 f6 07 be b7 b0 72 3b 46 4f 72 bd be 40 53 3c
       -0.13277604 0.00370316 -0.059157632 0.012893854
000210 f7 ff 1f be fe 1a cd bd e4 1e 23 3c 96 14 f1 3d
       -0.15624987 -0.10014914 0.009956095 0.117715046
000220 d2 94 0a be ff e2 6f 3d c2 43 3b bd 2c 90 51 be
       -0.13533333 0.05856609 -0.045718916 -0.20465153
000230 8c c0 de 3d e3 70 2b bd d8 0b dd bd a1 eb c7 bd
       0.10876569 -0.041855704 -0.10793275 -0.097617395
000240 90 1c 1d bd bc ba 0b be fa 21 07 be 58 a2 2c be
       -0.038357317 -0.13645452 -0.13196555 -0.16858804
000250 8e ae 23 be 48 0e f5 bc 6d c5 59 bd c0 9d 1b bd
       -0.15984556 -0.029914036 -0.053166796 -0.03799224
000260 ef ac bc 3d ef 64 a1 bd 48 3a 12 be 19 ef 1b 3d
       0.09212672 -0.0788058 -0.14280045 0.03806982
000270 22 a3 21 be 17 e5 11 bd 8e 41 38 be da 3e 03 be
       -0.15784886 -0.035618868 -0.17993757 -0.12816945
000280 e7 ee 26 bd 0b f2 3b bc 51 a2 9b bd eb 7a bb 3b
       -0.04075518 -0.011471282 -0.07599319 0.00572144
000290 53 11 e7 bc 59 47 99 bd e5 30 58 3c f7 6f b7 bd
       -0.028206503 -0.074843116 0.013195251 -0.089569025
0002a0 29 3f 83 bd a6 49 9f 3d 3e 2c b1 bb 9e c8 33 be
       -0.06408531 0.07777719 -0.0054068854 -0.17556998
0002b0 f8 e7 08 3c 7e 53 81 bd 3e 0f 72 bd ed be 7d bb
       0.008356087 -0.06314753 -0.059096567 -0.0038718537
0002c0 ba 74 58 bd 31 45 dc bd 1a eb e7 bc b2 e7 bd 3b
       -0.052845694 -0.10755385 -0.028310347 0.0057954425
0002d0 a4 31 33 bd 44 fc 62 3d 64 36 25 be 01 ce 8d 3c
       -0.043748513 0.05541636 -0.1613403 0.017310144
0002e0 33 42 8b bd bf 57 bd bd 75 4a 39 3d 56 19 f1 bd
       -0.06799736 -0.09245252 0.045237023 -0.117724106
0002f0 44 64 71 3d 73 13 4e 3d d0 a0 b7 bd e8 71 ec bd
       0.05893351 0.050311517 -0.089662194 -0.115451634
000300 9b 5c 44 bd a1 2f 15 be 35 9e 30 3d 4b 08 f2 bb
       -0.047939878 -0.1456895 0.043119628 -0.0073862425
000310 3f 49 27 be 38 b9 19 be af 16 90 3e 5b 70 3d 3b
       -0.16336535 -0.15012062 0.28142306 0.002890608
000320 63 3f c3 3c d8 e9 11 3e 3b c0 64 3d 37 f1 d9 3d
       0.023833936 0.1424936 0.055847388 0.10641711
000330 23 43 b4 bd 25 be c5 3d 34 67 fe 3c b2 41 ad bd
       -0.08801868 0.09655408 0.03105507 -0.08459796
000340 39 97 b3 3c e3 20 a2 3c 0b 62 3b bb 18 9d c0 bc
       0.021922695 0.019791072 -0.0028592374 -0.023512408
000350 aa 6e 4b bd e2 c0 7c 3d a2 f0 fd bd d1 c6 9a bd
       -0.049666084 0.061707385 -0.12399413 -0.075574525
000360 10 1a 8b 3d c0 c9 88 bd d5 29 c2 bc 32 4b c8 3d
       0.067920804 -0.06679106 -0.023701588 0.09779967
000370 51 e4 fe 3b b1 a2 a8 3c cb 3b cd 3b e1 84 28 bd
       0.0077786823 0.02058539 0.0062632314 -0.04114235
000380 77 da ba 3b 3e e5 17 bd 85 eb 18 3d c4 cc 6b bd
       0.0057023126 -0.037083857 0.037333984 -0.057568327
000390 11 ae b7 bd 6b 0d 25 bd 03 7d 14 3d 41 86 1d 3d
       -0.089687474 -0.040296 0.036252033 0.038458113
0003a0 40 88 53 bc 7c 25 c9 3c 9c 5a de bc f2 0b 12 3e
       -0.0129109025 0.024554007 -0.027142815 0.1426237
0003b0 79 c5 84 bd c3 7b 60 3b 47 10 98 bd ed 9a 1b 3d
       -0.064829774 0.0034253455 -0.0742498 0.037989546
0003c0 59 a7 a2 3c 40 8b 8e bd a1 16 da 3d 52 8a 97 3d
       0.019855188 -0.069601536 0.10648847 0.073994294
0003d0 43 e7 8c 3d a0 3f 96 bd 82 53 c7 bd 76 8b 82 3d
       0.06880047 -0.07336354 -0.09732725 0.06374256
0003e0 db e1 89 3d 79 db 34 bd 64 f5 be 3d e0 e2 e1 bd
       0.06732532 -0.044154618 0.09324148 -0.11029601
0003f0 ad 18 c8 3d e3 24 45 3d 51 5c b6 3d 7a ea 39 bd
       0.097703315 0.04813088 0.08904327 -0.04538963
